{"class_name": "Sequential", "backend": "tensorflow", "keras_version": "2.0.4", "config": [{"class_name": "Dense", "config": {"batch_input_shape": [null, 853], "bias_regularizer": null, "activity_regularizer": null, "name": "dense_1", "dtype": "float32", "units": 250, "kernel_constraint": null, "bias_initializer": {"class_name": "Zeros", "config": {}}, "kernel_regularizer": null, "use_bias": true, "kernel_initializer": {"class_name": "VarianceScaling", "config": {"scale": 1.0, "mode": "fan_avg", "seed": null, "distribution": "uniform"}}, "bias_constraint": null, "activation": "relu", "trainable": true}}, {"class_name": "Dropout", "config": {"name": "dropout_1", "trainable": true, "rate": 0.5}}, {"class_name": "Dense", "config": {"bias_regularizer": null, "use_bias": true, "name": "dense_2", "bias_constraint": null, "units": 250, "kernel_constraint": null, "bias_initializer": {"class_name": "Zeros", "config": {}}, "kernel_regularizer": null, "activity_regularizer": null, "trainable": true, "activation": "relu", "kernel_initializer": {"class_name": "VarianceScaling", "config": {"scale": 1.0, "mode": "fan_avg", "seed": null, "distribution": "uniform"}}}}, {"class_name": "Dropout", "config": {"name": "dropout_2", "trainable": true, "rate": 0.5}}, {"class_name": "Dense", "config": {"bias_regularizer": null, "use_bias": true, "name": "dense_3", "bias_constraint": null, "units": 250, "kernel_constraint": null, "bias_initializer": {"class_name": "Zeros", "config": {}}, "kernel_regularizer": null, "activity_regularizer": null, "trainable": true, "activation": "relu", "kernel_initializer": {"class_name": "VarianceScaling", "config": {"scale": 1.0, "mode": "fan_avg", "seed": null, "distribution": "uniform"}}}}, {"class_name": "Dropout", "config": {"name": "dropout_3", "trainable": true, "rate": 0.5}}, {"class_name": "Dense", "config": {"bias_regularizer": null, "use_bias": true, "name": "dense_4", "bias_constraint": null, "units": 250, "kernel_constraint": null, "bias_initializer": {"class_name": "Zeros", "config": {}}, "kernel_regularizer": null, "activity_regularizer": null, "trainable": true, "activation": "relu", "kernel_initializer": {"class_name": "VarianceScaling", "config": {"scale": 1.0, "mode": "fan_avg", "seed": null, "distribution": "uniform"}}}}, {"class_name": "Dropout", "config": {"name": "dropout_4", "trainable": true, "rate": 0.5}}, {"class_name": "Dense", "config": {"bias_regularizer": null, "use_bias": true, "name": "dense_5", "bias_constraint": null, "units": 1, "kernel_constraint": null, "bias_initializer": {"class_name": "Zeros", "config": {}}, "kernel_regularizer": null, "activity_regularizer": null, "trainable": true, "activation": "sigmoid", "kernel_initializer": {"class_name": "VarianceScaling", "config": {"scale": 1.0, "mode": "fan_avg", "seed": null, "distribution": "uniform"}}}}]}